…
output pool2:  (None, 32, 48, 48)
output pool3:  (None, 64, 24, 24)
output conv4:  (None, 128, 24, 24)
output conv4:  (None, 256, 12, 12)
output:  (None, 128, 24, 24)
output:  (None, 64, 48, 48)
output:  (None, 32, 96, 96)
output:  (None, 16, 192, 192)
output:  (None, 1, 192, 192)
____________________________________________________________________________________________________
Layer (type)                     Output Shape          Param #     Connected to                     
====================================================================================================
input_3 (InputLayer)             (None, 1, 192, 192)   0                                            
____________________________________________________________________________________________________
convolution2d_33 (Convolution2D) (None, 16, 192, 192)  160         input_3[0][0]                    
____________________________________________________________________________________________________
convolution2d_34 (Convolution2D) (None, 16, 192, 192)  2320        convolution2d_33[0][0]           
____________________________________________________________________________________________________
maxpooling2d_9 (MaxPooling2D)    (None, 16, 96, 96)    0           convolution2d_34[0][0]           
____________________________________________________________________________________________________
convolution2d_35 (Convolution2D) (None, 32, 96, 96)    4640        maxpooling2d_9[0][0]             
____________________________________________________________________________________________________
convolution2d_36 (Convolution2D) (None, 32, 96, 96)    9248        convolution2d_35[0][0]           
____________________________________________________________________________________________________
maxpooling2d_10 (MaxPooling2D)   (None, 32, 48, 48)    0           convolution2d_36[0][0]           
____________________________________________________________________________________________________
convolution2d_37 (Convolution2D) (None, 64, 48, 48)    18496       maxpooling2d_10[0][0]            
____________________________________________________________________________________________________
convolution2d_38 (Convolution2D) (None, 64, 48, 48)    36928       convolution2d_37[0][0]           
____________________________________________________________________________________________________
maxpooling2d_11 (MaxPooling2D)   (None, 64, 24, 24)    0           convolution2d_38[0][0]           
____________________________________________________________________________________________________
convolution2d_39 (Convolution2D) (None, 128, 24, 24)   73856       maxpooling2d_11[0][0]            
____________________________________________________________________________________________________
convolution2d_40 (Convolution2D) (None, 128, 24, 24)   147584      convolution2d_39[0][0]           
____________________________________________________________________________________________________
maxpooling2d_12 (MaxPooling2D)   (None, 128, 12, 12)   0           convolution2d_40[0][0]           
____________________________________________________________________________________________________
convolution2d_41 (Convolution2D) (None, 256, 12, 12)   295168      maxpooling2d_12[0][0]            
____________________________________________________________________________________________________
convolution2d_42 (Convolution2D) (None, 256, 12, 12)   590080      convolution2d_41[0][0]           
____________________________________________________________________________________________________
dropout_3 (Dropout)              (None, 256, 12, 12)   0           convolution2d_42[0][0]           
____________________________________________________________________________________________________
upsampling2d_9 (UpSampling2D)    (None, 256, 24, 24)   0           dropout_3[0][0]                  
____________________________________________________________________________________________________
convolution2d_43 (Convolution2D) (None, 128, 24, 24)   295040      upsampling2d_9[0][0]             
____________________________________________________________________________________________________
upsampling2d_10 (UpSampling2D)   (None, 128, 48, 48)   0           convolution2d_43[0][0]           
____________________________________________________________________________________________________
convolution2d_44 (Convolution2D) (None, 64, 48, 48)    73792       upsampling2d_10[0][0]            
____________________________________________________________________________________________________
upsampling2d_11 (UpSampling2D)   (None, 64, 96, 96)    0           convolution2d_44[0][0]           
____________________________________________________________________________________________________
convolution2d_45 (Convolution2D) (None, 32, 96, 96)    18464       upsampling2d_11[0][0]            
____________________________________________________________________________________________________
upsampling2d_12 (UpSampling2D)   (None, 32, 192, 192)  0           convolution2d_45[0][0]           
____________________________________________________________________________________________________
convolution2d_46 (Convolution2D) (None, 16, 192, 192)  4624        upsampling2d_12[0][0]            
____________________________________________________________________________________________________
convolution2d_47 (Convolution2D) (None, 16, 192, 192)  2320        convolution2d_46[0][0]           
____________________________________________________________________________________________________
convolution2d_48 (Convolution2D) (None, 1, 192, 192)   17          convolution2d_47[0][0]           
====================================================================================================
Total params: 1572737
____________________________________________________________________________________________________
training in progress ...
epoch: 0
__________________________________________________
please wait to resize images ...
('X_r size: ', (186, 1, 192, 192))
…
